final/yann_agent/yann_agent.pt (torch, 118855 bytes, 12 tensors)

input_linear f4 [1, 17]
000000 00 00 00 00 00 00 00 00 00 00 00 00 00 00 00 00
       0.0 0.0 0.0 0.0
000010 00 00 00 00 00 00 00 00 00 00 00 00 00 00 00 00
       0.0 0.0 0.0 0.0
000020 00 00 00 00 00 00 00 00 00 00 00 00 00 00 00 00
       0.0 0.0 0.0 0.0
000030 00 00 00 00 00 00 80 3f 00 00 00 00 00 00 00 00
       0.0 1.0 0.0 0.0
000040 00 00 00 00
       0.0

weight f4 [64, 1]
000000 b6 1c 8b 3e 61 54 3f 3f ab a4 ec 3e cc 0c e6 be
       0.27170342 0.74738127 0.46219382 -0.44931638
000010 e5 c2 e9 3e 70 cc b8 be ea 83 22 3f 98 e6 3b 3e
       0.45656505 -0.36093473 0.63482535 0.18349683
000020 f7 8a 88 3f ca 76 2a bf c6 82 89 3f 82 34 1c bf
       1.0667409 -0.6658751 1.0743034 -0.6101762
000030 09 e6 10 3f 1f c7 0b bf 31 ac 47 bf 57 a8 ce 3e
       0.56601006 -0.5460071 -0.7799712 0.40362808
000040 15 1b 8c 3f 10 6f 97 3f 3a eb c3 3e fa eb 2e bf
       1.0945765 1.1830769 0.382654 -0.6832882
000050 fc ff fe be a1 a7 20 bf 97 f2 1b 3f cb 3f 94 bf
       -0.49804676 -0.6275578 0.6091704 -1.1581968
000060 7c 49 bd 3e 20 fc 76 3d e7 98 48 bf 1a 8b 23 bf
       0.36970127 0.06029904 -0.7835831 -0.6388413
000070 e0 15 bb 3d 82 33 6f bf 25 4a 9d 3f f2 46 84 bf
       0.09135032 -0.9343797 1.2288252 -1.0334151
000080 e2 83 27 3f 98 4c 07 3e 37 2c 22 bf eb 3f 4f 3f
       0.6543561 0.13212812 -0.63348716 0.80956906
000090 2f dd e9 be 48 b8 07 3e 10 7b 3f 3e 47 d3 7e bc
       -0.45676562 0.13253891 0.18699288 -0.015553302
0000a0 48 45 2e 3f da 20 87 3f 58 64 92 3f 32 c2 6f bf
       0.68074465 1.05569 1.1436872 -0.93655694
0000b0 60 8d 46 bf 2e 19 05 bf 66 49 7e 3f 8e 8e a4 3f
       -0.7755947 -0.51991546 0.9933075 1.2856004
0000c0 90 18 55 bf 23 20 a9 be 70 72 5c 3f 38 9b c1 3e
       -0.83240604 -0.3303233 0.8611212 0.37813735
0000d0 f8 b4 30 3e c9 25 15 3f 1c c1 39 3c 21 4f 66 bf
       0.17256534 0.5826078 0.011337545 -0.8996449
0000e0 4b c1 85 bf 9d 4b 2e bf 11 45 8c bf 00 3a aa 3c
       -1.0449613 -0.68084127 -1.0958577 0.02077961
0000f0 d1 7f 28 3f 90 7a 8e bf 86 e3 72 3f 6d 48 23 bf
       0.6582003 -1.1131153 0.94878423 -0.6378239

bias f4 [64]
000000 7b 7f a1 bd a3 c8 2b 3f 1f 79 93 3d 1e e7 3a bf
       -0.07885643 0.6710302 0.072008364 -0.73008907
000010 0e 12 82 be 6f 67 39 3f fc 24 22 3d 94 f0 e9 3d
       -0.254044 0.7242345 0.039586052 0.1142284
000020 69 da 4e 3d 5d 3e ca 3d 01 ba 16 bf 86 b9 c7 be
       0.05050126 0.09875176 -0.5887757 -0.3900873
000030 e3 b7 90 be 1f d7 23 3f 0e 68 41 3d 05 2e 08 3f
       -0.28265294 0.64000124 0.047218375 0.5319522
000040 22 5d 79 3d 0c 87 44 3f 52 98 72 3e c8 1f 75 bf
       0.060879834 0.76768565 0.23690918 -0.9575162
000050 0c 37 1f bf 22 46 c9 3e 7d 0f 4d 3f 41 4c 23 bf
       -0.6219337 0.3931132 0.8010176 -0.6378823
000060 6a d9 09 bf 78 ca da be 67 43 36 3f e2 0b 7e 3f
       -0.5384737 -0.42732596 0.711966 0.9923688
000070 0c 27 24 bf d4 02 79 bf 48 8b ff 3e 29 a7 e9 3e
       -0.6412208 -0.9726994 0.4991095 0.45635346
000080 ea ce 63 bf 2c 8c c1 be 96 3e cc 3e a7 25 02 3f
       -0.889876 -0.37802255 0.398915 0.508387
000090 d7 d4 01 3f 5e d6 02 bf 7c eb 2c bf 29 ac 58 3f
       0.5071539 -0.5110835 -0.6754682 0.84637696
0000a0 af b8 df 3e 78 e1 14 bf 0e 15 41 3f ea 16 03 bf
       0.4369559 -0.5815654 0.7542275 -0.5120684
0000b0 04 0b ff 3e 6c 38 f7 3e 14 3e 7f bf 84 4e 98 3e
       0.49813092 0.48285234 -0.997041 0.29747403
0000c0 19 02 3a 3f 83 40 86 3f a2 28 37 3f 75 dd 70 3e
       0.7265945 1.0488437 0.71546376 0.23521979
0000d0 04 88 0d bf 59 f3 27 3d e4 ac 11 3f 2a 72 fd be
       -0.5528567 0.04100356 0.56904435 -0.49501163
0000e0 14 01 a0 3e 66 e2 2f 3f 4d 84 49 3f 4a 7f 2c bf
       0.31250823 0.6870483 0.787175 -0.6738173
0000f0 01 35 d2 3e 78 0d 81 3f 58 b2 35 3f bd 87 b2 be
       0.41056064 1.0082235 0.70975256 -0.34869185

weight f4 [128, 64]
000000 b9 33 10 3e 3e 02 2d 3e c1 12 8e bb f0 41 bb bc
       0.1408223 0.16895387 -0.0043357317 -0.02285859
000010 10 4b f3 3d 57 ba 9a bd 73 47 5b 3e 46 f8 0b 3e
       0.118795514 -0.07555073 0.21413974 0.13668928
000020 c1 11 63 3e f7 7c a8 bd 15 cf 93 3e 54 96 93 bd
       0.22174741 -0.0822696 0.2886893 -0.07206407
000030 dc dc cb 3c 8f d7 99 3d c7 b6 97 be 6a 1c ef 3d
       0.024885587 0.07511818 -0.29631636 0.116753414
000040 d3 f3 04 3e 69 a1 b9 3d 95 50 fe 3c f4 d7 31 3d
       0.12983637 0.0906399 0.031044284 0.04341884
000050 94 7a 1c 3d 33 33 55 bd 69 7b c7 3d 32 5d de 3d
       0.038202837 -0.05205078 0.097403355 0.10857619
000060 38 20 8b bc de 67 d0 bd c8 3a ec 3c 6e 0b 7f 3c
       -0.016983137 -0.10176061 0.028836623 0.01556669
000070 60 c3 b0 3b 7c 54 ca 3d 64 8b 50 3c 5d 8d c3 bb
       0.0053943843 0.09879395 0.012728546 -0.0059677796
000080 90 7a 72 bd 50 0a cb bc 41 f8 78 bd 2b 1a e9 3c
       -0.059198916 -0.02478519 -0.06078363 0.02845486
000090 c6 71 a3 bd 3c 8b 7b 3d 38 f1 51 bd 87 57 f3 bc
       -0.07980685 0.06141208 -0.051255435 -0.029704822
0000a0 14 a3 16 3e 05 83 93 3e 84 ee d1 3d 26 fb c9 bd
       0.14710647 0.28810897 0.10250571 -0.09862356
0000b0 a5 a0 9f bd 2f b2 eb bd 7e a2 b7 3d 5c d7 8f 3c
       -0.077943124 -0.11508595 0.0896654 0.017558746
0000c0 85 7f 2f be 2f 55 e2 bd 73 4c 38 3e 14 55 22 3e
       -0.17138489 -0.11051404 0.17997913 0.15852767
0000d0 64 cc 35 bd e7 58 3e 3d a9 a2 5f bd 18 a4 c7 bd
       -0.044384375 0.046471503 -0.054598484 -0.09748095
0000e0 16 79 4d bd 82 51 c4 bd 38 db 3c be 3c 7c 5f bd
       -0.050164305 -0.09585859 -0.18443 -0.05456184
0000f0 f7 92 83 3d 95 11 10 be db 07 8d bc 5c 17 bb 3d
       0.06424516 -0.14069207 -0.01721566 0.09135315
000100 c7 09 f2 bb eb 3b a4 3d c5 59 32 bd 10 ef cf bc
       -0.0073864195 0.08019241 -0.043542642 -0.025382549
000110 80 03 7a be 1f 5a ce 3d 46 c6 c9 bd 06 5f bc 3d
       -0.24415398 0.10075783 -0.09852271 0.09197812
000120 0c 96 36 3a c3 7e 59 be 36 7e e9 be c0 dd d5 bd
       0.0006965108 -0.21239762 -0.45604104 -0.10442686
000130 71 8a 48 be 54 8a 17 3c f8 24 f3 bd a3 5a eb 3c
       -0.19584061 0.009249289 -0.118722856 0.028729742
000140 91 49 ad 3c 4d 6f ac 3d 7c f0 6c bd a0 8e eb bc
       0.021153243 0.084196664 -0.05784653 -0.028754532
000150 fa b7 b8 bd 35 07 75 3c bd 72 eb 3d dc 72 d7 be
       -0.09019466 0.014955332 0.11496494 -0.42079818
000160 de 89 83 bd 5e 79 d1 3d e5 b9 dc 3d 69 a5 1b bd
       -0.064227805 0.10228227 0.10777644 -0.037999544
000170 28 f8 b5 bc aa fc d8 bd 3a 3b b4 bc 24 be 33 be
       -0.022213057 -0.10595067 -0.022000898 -0.17553002
000180 c8 d8 2b bd 44 2b 5f bd b4 00 46 3d a9 1b 11 3d
       -0.041954786 -0.05448462 0.048340514 0.03542677
000190 51 67 1b bd 68 57 90 3c e0 e4 cf 3c fd 80 f6 3d
       -0.037940327 0.017619804 0.02537769 0.12036321
0001a0 a2 14 dc 3d 4a 1c 06 bf 14 9d 39 bd 51 4c e5 be
       0.10746123 -0.52386916 -0.045315817 -0.44784787
0001b0 19 65 d2 bc a3 ae 27 3d 00 49 db bd 11 1f 11 3e
       -0.025682973 0.04093803 -0.10707283 0.14172007
0001c0 04 0a 2a 3d 43 1d 05 bc 7c 07 22 3d c9 2b 2e 3d
       0.041513458 -0.008124652 0.03955792 0.042522226
0001d0 00 4d 64 3b 15 14 a3 3d 37 21 f3 bc 7e 75 b0 be
       0.0034835935 0.07962815 -0.029678924 -0.3446464
0001e0 0a 16 51 bb 04 2f d5 3d 04 a5 2c bd 30 1a 3e 3c
       -0.0031904005 0.10409358 -0.04214956 0.011602923
0001f0 b5 44 37 3e 36 f4 02 3e 4d 2b 0b 3e 94 da b2 be
       0.17897303 0.12788472 0.13590737 -0.34932387
000200 db 0a 17 3d 17 0d 76 3d 36 94 68 3e 78 d7 87 bc
       0.036875587 0.060071077 0.22712788 -0.016582236
000210 cc 80 b4 3d 03 18 44 bc 4d 3a 85 3e f5 30 12 3e
       0.088136286 -0.011968615 0.26021042 0.14276488
000220 56 aa 22 3e b9 72 ad bd 69 8b 72 3d eb d9 b1 bd
       0.1588529 -0.08469147 0.059214983 -0.08684143
000230 6d 13 22 bc 0e 52 f4 bd 16 c4 a0 be d8 e1 24 3e
       -0.009892327 -0.11929713 -0.31399602 0.16101778
000240 32 4f 88 3e e3 b4 33 bd a8 d3 08 3d 0e 88 e8 bd
       0.2662292 -0.04387368 0.033404976 -0.11354075
000250 b8 2d 53 bd 20 e1 5a bd 05 73 c7 3d 88 ea 16 3d
       -0.051557273 -0.053437352 0.09738735 0.03684476
000260 a8 9d fc 3c 86 4e a8 bd 96 3f bf bd 0a 64 e5 bd
       0.030836895 -0.08218102 -0.093383 -0.112007216
000270 d6 08 d8 bd c4 2b bb 3d 8a c9 40 3d 4c 70 51 bc
       -0.1054856 0.09139207 0.047067203 -0.012783121
000280 b0 81 03 3c 5c a3 fb bd 01 df eb bd b6 a7 16 3e
       0.008026525 -0.12287018 -0.11517144 0.14712414
000290 1a 92 e8 bc 54 55 a8 3d 86 55 9a 3d 47 2a b3 bb
       -0.02838998 0.082194 0.075358436 -0.0054676863
0002a0 c0 a6 8f 3d 90 88 53 3e c8 38 39 3e 59 89 04 3d
       0.07014227 0.20657563 0.18088067 0.032357547
0002b0 e1 cb c3 bd 22 bb 20 bd 90 65 f6 3c 50 e6 de 3c
       -0.09560371 -0.039240964 0.030077726 0.027209431
0002c0 a6 28 34 3d c9 79 99 bd 36 bb 54 3d 38 75 3e 3e
       0.043984078 -0.07493932 0.05193635 0.18599403
0002d0 d4 0b c9 bd 26 c0 3a 3e 9b cf 11 3b c6 ea 0b bd
       -0.09816709 0.18237361 0.0022248987 -0.034159444
0002e0 b9 09 10 be 10 0e 9d bd fb 0c c5 bd 84 52 71 3d
       -0.14066209 -0.07668698 -0.096216165 0.058916584
0002f0 b2 94 03 3e 14 55 b2 bd c2 18 29 3e a2 4c 56 bd
       0.12849692 -0.087076336 0.1651335 -0.052319176
000300 1b 75 13 3e 34 1a 26 3e 60 ad 22 3e 28 58 33 3d
       0.14400141 0.16220933 0.1588645 0.043785244
000310 b8 4a 94 3e 24 56 47 bd 25 f2 66 3e 85 67 40 3e
       0.28963256 -0.048666134 0.22553308 0.1878949
000320 23 37 48 3c ce ce 00 bc e9 e6 9b 3e 90 1b 78 3c
       0.012220177 -0.007861806 0.30449608 0.01514329
000330 65 ec 91 3e 67 23 39 bd 9e 6d 2f be 87 cc 30 3e
       0.28500667 -0.045199778 -0.1713166 0.17265521
000340 aa 01 50 3e be df ec 3d 60 c5 3d 3e 62 8b cd 3d
       0.20313135 0.11566113 0.18532324 0.10036351
000350 98 2e 86 bc 58 c6 77 3b 9f 7d d0 bc 30 6b 9d 3d
       -0.01637964 0.003780743 -0.025450526 0.0768646
000360 dc 84 a0 3d 34 2c 35 bd 99 8d d7 bd a5 eb f3 3c
       0.07837841 -0.04423161 -0.105250545 0.02977545
000370 96 28 f9 3d 88 13 48 bd 53 b2 f7 3d c5 41 9b bb
       0.12165944 -0.04884675 0.120945595 -0.004738065
000380 64 7b 33 3d ac 07 cf 3d 81 5f ff bd 11 8f 28 3e
       0.043818846 0.10108885 -0.12469388 0.16460826
000390 e0 02 c7 3c 4c f2 45 3d ea 53 f5 bd 06 81 5c 3d
       0.024293363 0.048326775 -0.11978896 0.053833984
0003a0 96 d6 34 bd 65 70 da 3e da 93 63 3d 26 0c cb 3d
       -0.044149958 0.42663875 0.055560924 0.099144265
0003b0 a4 9e 45 be 0d d8 34 be 00 95 9c 3d e0 df 36 3d
       -0.19298798 -0.17660542 0.07645607 0.044647098
0003c0 ba 13 d8 bd 12 94 a7 bd 8a c6 37 bd 64 6a f5 3c
       -0.105506375 -0.08182539 -0.044867076 0.029957958
0003d0 8c 5d 48 bd 59 73 2f 3e 01 67 b5 3d 9a 17 9a 3d
       -0.04891734 0.17133845 0.08857537 0.07524033
0003e0 1c 33 11 be 0f 7b 00 be ca b4 d8 3b d0 d5 e8 bd
       -0.14179653 -0.12546943 0.0066133486 -0.113689065
0003f0 1d b0 c4 3d 85 b7 23 be f1 35 2e 3e 94 aa 6b bd
       0.096039034 -0.15987976 0.17012765 -0.057535723

bias f4 [128]
000000 4e d5 10 3e bc 76 29 3e dc 39 3b 3d 1e c9 08 3d
       0.1414387 0.165492 0.045709476 0.033394925
000010 a4 37 85 3c 76 18 9d bd a8 3b 05 bd bc 07 7d bc
       0.016261883 -0.07670681 -0.032527596 -0.015443739
000020 09 7d 4a 3d 87 76 05 3c e9 1d 0e 3e 90 50 6d 3d
       0.04943565 0.008145935 0.13878597 0.05793816
000030 d4 7b da 3d 89 ae 1b 3d 78 80 0d 3e ca 61 1f 3e
       0.106681496 0.038008247 0.13818538 0.15564647
000040 f7 10 01 bd 72 37 ac bd 32 f6 42 3d 75 e9 4c bc
       -0.03151032 -0.08409013 0.04759807 -0.012506832
000050 24 78 3e 3d 6c 17 93 3d 43 dd 90 3c 50 ae d8 3d
       0.046501294 0.07182202 0.01768363 0.105801225
000060 38 e0 83 3c b5 96 88 3d 56 cb b5 bd ac 07 c2 3d
       0.016098127 0.0666937 -0.08876674 0.094741195
000070 7a 08 15 3e 88 45 8f bd 59 c4 2a 3d 07 5b eb 3d
       0.14554015 -0.06995684 0.041691158 0.114919715
000080 0d fe 0b 3e 0c ec c0 3d 9a 54 f1 bd f2 1d 64 bc
       0.13671131 0.09420022 -0.117837146 -0.013923155
000090 e7 9a 78 3d ec 4b 7f bd 76 11 22 bd 36 2b b6 bc
       0.0606946 -0.062328264 -0.039567433 -0.022237401
0000a0 98 b5 91 bd c8 d0 1d 3e 46 ba 6b 3d bf d3 f9 bc
       -0.071147144 0.15411675 0.05755069 -0.030496476
0000b0 92 f9 bb 3c f3 18 2c 3e be 7a 88 bd 20 31 b8 3c
       0.022946153 0.16806392 -0.06664036 0.022484362
0000c0 db d8 e3 bd 81 0b 99 3d 95 51 5f bd dc 7a 3c 3d
       -0.11125346 0.07472897 -0.054521162 0.046015605
0000d0 59 28 d5 bc 99 a4 3a 3d 36 b0 87 bd 2f 9f ba 3c
       -0.026020216 0.04556713 -0.066254064 0.022780983
0000e0 9f aa 3c 3e e6 53 8e 3d 86 1c ad 3d 26 ee 27 bc
       0.18424462 0.06949596 0.08452706 -0.01024965
0000f0 37 37 0c 3d 50 17 b3 bc e8 47 e0 bd c2 55 bf 3d
       0.034232344 -0.021861702 -0.10951215 0.09342529
000100 78 80 f2 bd e9 a7 3b bd 7e cc e4 bd 2f ce 37 3e
       -0.1184091 -0.04581443 -0.11171816 0.17949747
000110 e5 bd ab bd 77 88 87 3c b8 2d 8d bd 47 d3 d8 3d
       -0.08385829 0.016544564 -0.06893486 0.10587173
000120 00 64 90 3c 07 79 72 bc c8 5d 8f bd 6c d2 43 3e
       0.017625809 -0.014799363 -0.07000309 0.19123238
000130 ed 9b 95 3d f3 78 08 3d 49 0e ba 3d 42 e1 de bd
       0.07305131 0.03331847 0.09084756 -0.10882808
000140 06 a3 a0 bd fd 88 a1 3d 97 5a ad bc 20 3e 77 3d
       -0.07843594 0.078874566 -0.02116136 0.06036198
000150 b6 1f bb bc ed 58 5b 3d d2 33 86 3c ee 64 92 3b
       -0.02284227 0.053551603 0.016382132 0.004467598
000160 b0 7f 62 bd 39 eb d5 3c 76 43 8d bd 91 8b 4a 3d
       -0.055297554 0.02611314 -0.06897633 0.049449507
000170 23 67 2f 3e 47 57 94 bd 38 06 05 3d d6 ac 87 bd
       0.17129187 -0.07243209 0.032476634 -0.06624763
000180 28 70 af bd 31 c0 8a bc 6c 9f a3 3d fa 5b c6 bd
       -0.08566314 -0.016937347 0.07989392 -0.09685512
000190 e8 a0 fc 3d 28 af a9 3d ac 3e c4 bc 3a 11 09 3d
       0.12335378 0.082853615 -0.023955666 0.033463694
0001a0 71 93 92 bd a6 43 8e bd 50 81 1d bc 9b 6b 23 3e
       -0.071570285 -0.06946497 -0.00961335 0.15959017
0001b0 f1 d5 35 3d b8 06 3c 3e 54 a1 d2 3d c8 ef ea 3d
       0.044393484 0.18361938 0.10284677 0.11471516
0001c0 1a be 8b 3d a2 0c f8 3d bc b3 80 bc 65 89 33 3d
       0.06823368 0.121117845 -0.015710704 0.0438322
0001d0 01 fa ac bd 0a 14 9a bc 6e 31 5c bd 12 ed b9 bd
       -0.08446122 -0.018808383 -0.053758077 -0.09078421
0001e0 31 f1 3f bd 0d 5e cf 3c 50 ae c6 bd f9 68 66 3d
       -0.046860877 0.025313402 -0.09701216 0.056252453
0001f0 05 64 05 bd 90 f3 e2 3d 4c b0 9b 3d b8 3d 87 3d
       -0.03256609 0.11081612 0.07601985 0.06603569

weight f4 [128, 128]
000000 87 3a 5d bd a6 96 1a 3d 60 d9 d1 bd b5 85 de bd
       -0.054010894 0.037741326 -0.10246539 -0.10865346
000010 da a6 94 3d 28 65 8c 3d 46 1d 3a 3d 3a 7b 27 be
       0.07258387 0.068552315 0.045438074 -0.16355601
000020 1a de 91 bc 66 07 8f bd c9 3c 10 3d f0 1a 31 3c
       -0.017806102 -0.06983833 0.03521422 0.010809645
000030 87 46 19 be ad 01 b9 bd ab 13 0e 3e 7f f4 a1 3c
       -0.1496831 -0.09033523 0.1387469 0.019769905
000040 b4 ef 55 3d a5 2d 93 bd 77 ea 8a 3d f0 b2 ab 3d
       0.05223055 -0.071864404 0.06783002 0.08383739
000050 25 0e ad bd 80 18 1e be 2a 31 e3 bd 5d 6b a5 bd
       -0.084499635 -0.15439034 -0.11093362 -0.080771185
000060 bd 60 82 bd 92 e7 37 3c 2a c1 81 3d 61 d8 c9 bc
       -0.063661076 0.011224644 0.06335671 -0.02463931
000070 a9 5b d1 3d 98 89 68 3d 72 b0 97 bb e4 db 52 bc
       0.10222561 0.056771845 -0.004629188 -0.012869809
000080 4b 24 f2 3d 76 0d 09 bd 74 43 84 3a 78 e3 cd bc
       0.118233286 -0.033460103 0.0010090903 -0.02513288
000090 1a 89 27 3e d4 90 41 3d c7 92 6c be 1f ef 20 be
       0.16360894 0.04725726 -0.23102866 -0.15716217
0000a0 bc cd ae 3d c2 e2 19 3c 52 47 b7 bd 45 98 21 3e
       0.085353345 0.009392442 -0.0894915 0.15780742
0000b0 5e 5c c0 3d 4b 62 5a 3d 46 5d 86 bc a3 22 0a 3e
       0.09392618 0.053316396 -0.016401898 0.13489775
0000c0 9e 6b 96 3d d2 09 01 3c 51 29 60 bd 17 48 11 3e
       0.07344745 0.0078758765 -0.054726902 0.14187656
0000d0 b2 6d 14 be 2e cb 95 bd 1b d5 65 bd e1 75 d0 bd
       -0.1449497 -0.07314144 -0.056111436 -0.101787336
0000e0 ee 7a 26 3d 23 76 67 3c 52 22 b4 bd 11 fa 0f bd
       0.04064458 0.014127287 -0.087956086 -0.03515059
0000f0 66 ff 12 be ad 90 0a bd 2a b1 bf 3c d1 ab fb bb
       -0.1435524 -0.03382938 0.023399908 -0.007680394
000100 97 d7 50 bd 08 33 08 3e d3 0d bb 3c 74 89 f5 3d
       -0.050986852 0.13300717 0.02283374 0.11989108
000110 fa 6b 31 be c2 1d 01 3e 60 95 ac bd 89 6b 80 3c
       -0.17326346 0.12609008 -0.084269285 0.015676277
000120 6d 64 e0 bc 89 b9 c3 bd 53 ef bb bc a0 51 9c 3d
       -0.027391637 -0.095568724 -0.022941267 0.07632756
000130 e5 35 ab bd a8 53 04 3e 5e b1 9b 3b 31 90 9c 3d
       -0.08359889 0.12922537 0.0047513684 0.0764469
000140 3f 17 ec bb db 2c 9b 3d f0 79 72 bd 68 c5 a7 3d
       -0.0072049196 0.07576915 -0.05919832 0.08191949
000150 70 a5 3b be 1b 80 1f 3d f4 43 a7 bb 46 b7 5a 3c
       -0.18324828 0.03894053 -0.005104536 0.01334936
000160 f0 ba 04 bd 13 1a 26 be c6 d0 a8 bd 17 ba 9b 3c
       -0.03240484 -0.16220884 -0.082429454 0.019009633
000170 14 40 91 bd b5 9d 3a be 0c 5f 83 bd 00 eb 51 3d
       -0.070923 -0.18224223 -0.06414613 0.051249504
000180 c5 b9 f3 bd 2d 3d 4e 3c aa e0 a8 bc a4 d0 33 3d
       -0.11900667 0.012587828 -0.02061494 0.043900147
000190 7e 6f ca 3d 20 a1 32 bc 7d bd 4d bc 6a c9 a6 bd
       0.09884547 -0.010902673 -0.012557385 -0.081438854
0001a0 c5 ef a5 bd 90 1d 10 bd 8c c5 31 3e 9d 3a 54 3c
       -0.08102373 -0.035184443 0.17360514 0.012953428
0001b0 e1 7f bf 3d d7 38 02 3e a3 7e 94 bd c7 d8 35 3d
       0.09350563 0.12716995 -0.072507165 0.044396188
0001c0 cd 5c 2f 3d e2 a3 b7 3d d1 aa 96 bd 43 7d b1 bc
       0.04281311 0.08966805 -0.073567994 -0.021666175
0001d0 f3 2d 7b bc 4b 3c 66 bc dc 0c 84 bd 5f 40 3f bd
       -0.015330779 -0.014052461 -0.06447765 -0.04669225
0001e0 9a 1b cd 3d ad e4 9f 3d 89 e9 d4 3d 62 e6 88 be
       0.1001503 0.07807288 0.10396106 -0.26738268
0001f0 8b 98 59 bd f5 0b a5 3d 72 5f 1c bd ce 13 e4 3d
       -0.053123992 0.08058921 -0.03817696 0.1113659
000200 d2 57 9b 3d 28 c5 e8 bd 11 f7 3e bd 53 3e d5 3d
       0.0758511 -0.113657296 -0.04662234 0.10412278
000210 54 4a 75 bd a4 ad 11 3d 96 9f 04 bd 2b 7f 8b 3d
       -0.059885338 0.035565987 -0.032378756 0.06811365
000220 cb ad 44 bd 35 fd 30 3d 4a f9 6a 3c cc b2 17 3d
       -0.048017304 0.043210227 0.014341662 0.03703575
000230 57 98 dc bc a6 53 9a 3d 2c 14 70 bd d7 52 8d bd
       -0.02692811 0.07535486 -0.058612987 -0.06900566
000240 2f 12 ab 3d b6 ee 92 3d 5b b2 1b 3d 62 e1 75 bd
       0.083530776 0.07174437 0.03801189 -0.060029395
000250 e4 a1 85 bb c0 e9 70 3d c8 95 f0 3d b9 f2 14 bd
       -0.0040781368 0.05881667 0.117473185 -0.03636429
000260 f7 3f a6 3c 58 60 1a be 3e f0 e7 bc da 0c 69 3c
       0.020294173 -0.15075815 -0.028312799 0.014224255
000270 56 de e8 bd f5 be 24 bd 97 bc 42 3d 48 8e b0 3d
       -0.11370532 -0.040221173 0.047543135 0.08620888
000280 58 84 5a bc ae 54 14 be 14 5e 00 3d cf a0 c2 3a
       -0.013337217 -0.14485428 0.03133972 0.001484895
000290 43 d4 a3 bc 3f 10 34 bd 2d e8 1d 3e 3c 30 11 bb
       -0.019998675 -0.043960806 0.154206 -0.0022153994
0002a0 f2 08 36 bc 3a 0c 7a bd b2 cd f5 3d aa 0c 53 3c
       -0.011110531 -0.061046816 0.12002124 0.012881437
0002b0 ef e3 96 3d 43 36 22 3c 80 d6 a5 3d 0b c6 9e bd
       0.07367694 0.009900632 0.08097553 -0.077526174
0002c0 4e d8 21 3a 47 e9 a9 bd 15 68 bf bc 19 71 6d 3d
       0.00061738945 -0.08296447 -0.02336506 0.057969186
0002d0 9a 13 f7 3d 52 c4 9e 3c fd 4c 65 3d 67 86 06 3e
       0.120642856 0.019380722 0.055981625 0.13137208
0002e0 da 0c 98 3d 3f f6 88 3d d3 b9 05 3c 71 ed fc 3d
       0.07424326 0.06687593 0.00816198 0.12349976
0002f0 70 b4 1f 3d 67 cc 4d ba b2 c0 e6 bc 7e 97 bb bd
       0.038990438 -0.0007850588 -0.028168056 -0.09159754
000300 69 4b 23 3d af f1 b6 bc 5f 49 d5 3c d2 82 81 bd
       0.03986684 -0.02233204 0.026035963 -0.0632378
000310 e2 b4 ec 3d 76 9d ce bd 23 6a 3a bd ae f7 b0 bd
       0.11557938 -0.10088627 -0.045511376 -0.08640991
000320 ef b9 8b 3d d6 e1 23 3e 24 9f 30 3d 58 30 85 3c
       0.068225734 0.16004118 0.04312052 0.016258404
000330 e0 ce c4 bc 8e ac 8a bd 96 39 42 3d ca 21 82 3c
       -0.024024427 -0.067711934 0.0474182 0.015885253
000340 23 72 95 3c 2b 52 af 3d 46 e1 bc bd 69 39 6d bd
       0.018242901 0.08560594 -0.09222655 -0.05791608
000350 4b 34 af 3b 2e ed 29 bc a9 82 b6 3b 7c 61 85 bd
       0.00534681 -0.010371489 0.005569775 -0.06512734
000360 c1 06 44 3c 38 97 69 3c d7 32 e0 3c 68 e5 80 3d
       0.011964501 0.014257245 0.027367992 0.06293756
000370 12 ff 0e be 48 70 87 bc 54 df 19 bc 03 18 69 bd
       -0.13964489 -0.016533032 -0.0093916245 -0.056907665
000380 9e ee 3d 3e 72 0c 65 3d 14 d9 6c 3c 86 9b 97 3d
       0.18548056 0.055920072 0.014456052 0.074027106
000390 8b a6 97 3c 48 7c 77 3c 41 da 8f 3d 89 f9 7a bd
       0.018512031 0.015105315 0.070240505 -0.06127313
0003a0 84 f7 25 3d 7f 57 99 3d 9c 43 39 bc e2 0c 72 3c
       0.040519252 0.07487392 -0.011307623 0.014773579
0003b0 61 35 2b be 46 33 64 3d e5 0e a4 3d 37 73 30 3c
       -0.16719581 0.05571296 0.080106534 0.010769657
0003c0 f5 01 4b bb 73 c8 36 bc 80 da 51 3d d7 ec 1f 3c
       -0.0030976508 -0.011156189 0.05123377 0.009761057
0003d0 d2 7f 9a 3d 6c 83 86 bd be bb e9 3d 08 ce 87 3d
       0.07543911 -0.065680355 0.11412762 0.06631094
0003e0 59 58 13 be c7 77 d0 3d 1d c1 17 be 14 ee 51 3e
       -0.1438917 0.10179096 -0.1481976 0.20500976
0003f0 db 1e 16 3e 79 ff a9 bd 28 bb 38 be 93 63 12 bd
       0.14660208 -0.08300681 -0.18040144 -0.035739493

bias f4 [128]
000000 de 53 10 3d a6 11 f1 bc 1d b7 92 bc 93 f8 aa bd
       0.035236232 -0.02942736 -0.01790958 -0.08348193
000010 cd db 4d 3d 5b 35 1a bd 24 4c 90 3d bb 67 2e 3d
       0.050258446 -0.03764854 0.07045773 0.042579394
000020 cc 0c d6 3d af 14 aa 3d f6 b8 2c 3d af 90 5c bd
       0.104516596 0.08304726 0.04216858 -0.05384892
000030 61 42 94 bd cc 34 96 bd 06 6e 24 3c c4 f9 8b bc
       -0.07239223 -0.07334289 0.010035997 -0.017086871
000040 60 16 cf 3d 00 09 44 3d 50 3f f6 bd 79 36 50 3d
       0.101116896 0.047860146 -0.12023795 0.0508332
000050 05 48 f0 bc 30 dc ac 3d 85 be a3 3c 9b b0 03 bd
       -0.029331217 0.08440435 0.019988308 -0.032150846
000060 a9 57 54 bc d3 ae 9b bd 1d 74 c1 bc dc 51 d2 3d
       -0.012960353 -0.076017044 -0.023614937 0.1026952
000070 85 23 39 3d b4 6b dd bc ac cd 1c 3d 9e 3e 6e 3b
       0.04519989 -0.027028896 0.03828208 0.003635324
000080 05 26 c2 bd 2f 95 02 bd 3f 17 fc bd 25 e5 d1 bc
       -0.09479908 -0.031880554 -0.12309121 -0.02562196
000090 2a 22 29 bd a9 f2 7f 3d a2 1e 5a bb aa 72 eb bc
       -0.041292347 0.062487278 -0.0033282419 -0.0287412
0000a0 52 1d 37 bd 2a 69 04 bb 52 7a 62 bc 63 e7 9f bd
       -0.044705696 -0.0020204284 -0.013823109 -0.078078054
0000b0 e3 e8 99 bd 46 08 0f 3d 9e b3 78 bd da 16 8d 3c
       -0.07515123 0.03492 -0.06071817 0.01722281
0000c0 4d 42 33 bd cb 54 02 3c 6b 3c de 3d b1 ac 3c 3d
       -0.0437644 0.0079547865 0.108513676 0.04606313
0000d0 e8 9b 9f 3d e7 19 44 3c 78 63 83 bd 75 5f a1 3c
       0.07793409 0.011969066 -0.064154565 0.019698838
0000e0 c5 92 eb bc bd 2d 4a bd 54 23 78 3d 93 5b 0c 3d
       -0.028756509 -0.049360026 0.060580567 0.03426702
0000f0 7b 01 31 bd 86 6f ae bd 55 22 3f 3d ff 9c a9 3d
       -0.043214303 -0.08517365 0.0466636 0.08281898
000100 b7 a8 83 bd a6 9e 02 3d 55 bb 17 bd 91 7d e2 bc
       -0.06428664 0.03188958 -0.037043888 -0.027647765
000110 59 bf 80 3d 1d de 72 3d 62 93 56 bc da 56 9d 3d
       0.06286497 0.059293855 -0.013096662 0.07682581
000120 2a 33 00 3e 0e bb 94 bc b7 82 47 3d d4 55 6b bd
       0.12519518 -0.0181556 0.048708644 -0.0574549
000130 b2 09 a5 3b 0b 77 61 3d 64 10 5f 3d 03 0a 7a 3c
       0.005036556 0.05504517 0.05445899 0.015261176
000140 8d 82 ad bb bd 9c 57 3d 46 fa a5 3d 42 9a 2b bc
       -0.005295104 0.05263971 0.081043765 -0.01047379
000150 a2 19 92 bc 5a 8a 21 bd 1c 99 08 3d 26 ac c8 bd
       -0.017834488 -0.039438583 0.03334914 -0.0979846
000160 14 3a 9a bc 56 37 95 bd 58 8f 88 bc 85 c5 56 3d
       -0.018826522 -0.07285945 -0.016669914 0.052434463
000170 af 1c c9 3b c4 16 4d bd 8f b4 c4 bc 05 cc 05 3c
       0.0061374526 -0.05007054 -0.024011878 0.008166318
000180 e3 af 17 bd d7 c8 8f 3c c2 06 a1 bc 19 d1 27 3c
       -0.037032973 0.017551823 -0.019656543 0.010242724
000190 85 68 fe 3c b8 6b bf bd 0f 50 de bc c5 12 b4 bc
       0.031055698 -0.093467176 -0.027137784 -0.021981606
0001a0 53 2f 63 3d 2d 28 5b 3c 8b 6b b0 3d e1 a9 57 bd
       0.055465054 0.013376278 0.08614262 -0.052652244
0001b0 e1 b6 0a 3d 25 e1 15 3d 39 78 87 bd 22 10 d0 bd
       0.033865813 0.036591668 -0.066147275 -0.10159327
0001c0 ae 76 f6 bc f0 85 2e 3d 66 8c 12 bd e1 0d ec 3c
       -0.030085888 0.0426082 -0.035778426 0.028815212
0001d0 b3 b1 da bc f2 70 eb 3c 57 25 b7 bd 32 ff cc 3c
       -0.026696062 0.02874038 -0.08942669 0.02502403
0001e0 69 6f cc bd c5 6d b9 bd c5 fe f9 b9 73 9f 48 3c
       -0.09982187 -0.0905414 -0.000476828 0.012245047
0001f0 bb 4a af 3b 95 db cd bd b4 fb db bd 40 ed a1 3d
       0.0053494847 -0.100516476 -0.10741368 0.0790658

weight f4 [1, 128]
000000 d8 55 92 3c a1 27 3c bd d2 3f 1b bd 44 61 b9 3d
       0.0178632 -0.04593623 -0.03790266 0.09051755
000010 61 91 77 bd 81 48 8c bc fe 0d 1e bd 5e 28 55 3d
       -0.06044138 -0.017124416 -0.038587563 0.05204045
000020 9e 56 6e 3c a2 6c 88 3d db 0c 1a bd 2c f0 9b bd
       0.014547018 0.06661345 -0.037609916 -0.076141685
000030 a5 92 6a bd b8 29 41 3d e3 51 12 bc 58 47 37 bd
       -0.057268757 0.047158927 -0.008930656 -0.044745773
000040 6d 5f 1d bd 32 c7 c4 bd d2 71 9d 3d dc a6 67 bc
       -0.038421083 -0.09608306 0.07687725 -0.0141389035
000050 d4 90 8f bd 0b 90 0b 3d 86 ca 3f 3d 4e e9 c2 bc
       -0.07010046 0.034072917 0.046824 -0.023792889
000060 f0 26 69 3d 3f 20 67 bd b3 c8 a4 bd 85 a1 22 bd
       0.0569219 -0.056427237 -0.08046093 -0.03970482
000070 21 96 3a 3d f9 db 7f 3d 9c ff 8a 3d 0a 1e c4 3d
       0.04555333 0.06246564 0.06787035 0.09576042
000080 a9 1e a8 3c 94 60 1e 3d e0 1d ea b9 21 3b 97 bd
       0.020522432 0.038666323 -0.00044654217 -0.07384325
000090 bc fc c3 bd cd 01 35 3c 03 6e 04 bd 0b bf d4 bd
       -0.0956969 0.011047793 -0.032331478 -0.10388001
0000a0 6d f3 b4 3d 2b 61 f0 bc 52 a9 bf 3d 7d 9e f7 bc
       0.08835492 -0.029343208 0.09358467 -0.03022694
0000b0 28 a5 f4 bc 50 2e 11 bd 63 e5 d5 3d 3e af 39 3d
       -0.029863909 -0.035444558 0.10444143 0.04533314
0000c0 f4 1e a6 bd 66 45 b8 3d 0a 21 22 bd 46 24 84 3c
       -0.081113726 0.08997612 -0.03958229 0.016130578
0000d0 93 40 bd 3b 57 f1 3b 3c 25 ee 83 3d aa 6b 44 bd
       0.00577552 0.011471114 0.06441907 -0.04795424
0000e0 43 23 91 3d 61 df 2c bc 2f 47 b9 3d 71 a3 56 bd
       0.07086804 -0.010551305 0.0904678 -0.052401964
0000f0 13 59 67 bd 10 15 61 3d be c9 3c 3d 58 79 7c bd
       -0.056481432 0.054951727 0.046090834 -0.06163916
000100 fa 4d 44 3c 4f 20 74 3d ad b9 ce bd d8 07 bd bd
       0.011981482 0.059601124 -0.100940086 -0.09230012
000110 eb 38 a5 3d b0 1e 9c bc b5 80 97 3d 95 ac 75 3d
       0.08067497 -0.019057602 0.07397596 0.05997904
000120 d0 e8 f1 bc e0 95 5d 3d ae 5f 53 3d d2 a4 3a 3d
       -0.029529959 0.05409801 0.05160492 0.04556734
000130 5d f2 64 bd 2c 3c a9 bd 7d 06 8a bd 77 27 01 bd
       -0.055895198 -0.0826343 -0.06739519 -0.031531777
000140 d4 00 a1 ba 55 b6 94 3d 1a f3 91 bd fe c9 7d 3d
       -0.0012283572 0.072613396 -0.07126446 0.061960213
000150 22 1f 5c 3d 2a 90 9f 3d 8b 32 8f 3b 1a 5f 88 bd
       0.053740628 0.07791169 0.004370039 -0.06658764
000160 81 7c 7e 3d a8 17 1e bd 0b 38 58 3c a5 45 a9 3d
       0.062130455 -0.03859678 0.013196955 0.08265237
000170 16 f3 75 bc 5c b0 52 bd aa 1f e1 bb 7a e7 ec bb
       -0.0150115695 -0.05143772 -0.0068702297 -0.0072297426
000180 24 12 09 bd 6e 2f 8e 3d 96 71 3a bc 6e dd 1f bc
       -0.033464566 0.0694264 -0.01137962 -0.009757383
000190 e5 ac 32 bd 45 1f a2 bd c5 6c ac ba eb 78 0e 3c
       -0.043621916 -0.079161204 -0.0013154974 0.008695821
0001a0 56 fa b2 3d 8d 4e f3 3c a4 17 7c bd c7 fe 95 3d
       0.08739154 0.029700542 -0.061545983 0.073239855
0001b0 34 1c bc bd 7b 36 4e bb 9e 48 0b bc fe a4 86 3d
       -0.09185067 -0.0031465578 -0.0085012 0.065744385
0001c0 93 ed e2 3d 61 36 73 bd a9 79 38 bd 2e fd c8 3a
       0.1108047 -0.05937803 -0.0450379 0.0015334242
0001d0 60 0b 9c bd eb 7d f0 3c fd a2 4b 3d db cb 7b 3d
       -0.07619357 0.029356917 0.049715985 0.06147371
0001e0 09 cf b4 bd 2f 58 8f 3d 23 e2 04 3d fc 5d 56 bd
       -0.08828551 0.069992416 0.032442223 -0.052335724
0001f0 26 42 b3 bd 74 a7 91 3d 68 80 81 3d 69 3d b1 bb
       -0.08752851 0.07112017 0.0632332 -0.005408932

weight f4 [3, 128]
000000 97 16 2e 3d 0e 23 34 3e be 96 8a 3f e2 f1 5b 3e
       0.042502012 0.17591497 1.0827253 0.2147899
000010 75 b1 a3 3e 03 f4 9d 3f 6d 8a 55 3e 73 6c 4d be
       0.31971326 1.2340091 0.20853586 -0.20060901
000020 c5 81 c4 3d eb 0e 84 3e 7b 71 d2 bc cd 11 1c be
       0.09595064 0.25792632 -0.025688877 -0.15241165
000030 1c 60 fd 3d d3 0d 46 3e 23 85 66 be 7d ed 80 3f
       0.12371847 0.19341211 -0.22511725 1.0072476
000040 db 8d 7d 3e 11 55 a8 bc 9f cf 10 bd 8d aa e1 3e
       0.24761145 -0.020548375 -0.035354253 0.44075432
000050 f3 6e aa 3e e0 b8 40 3e e1 14 65 3d f1 85 d4 3e
       0.33287773 0.18820524 0.055928115 0.4150844
000060 ef ad c2 3e 7d 80 80 bd fa e0 62 3e 31 e8 81 3e
       0.38023326 -0.06274507 0.22156134 0.2537246
000070 29 a7 ee 3e fb cf 97 be d3 7a a8 3e 4a 40 8b be
       0.46611908 -0.29650864 0.32906207 -0.27197486
000080 ff 4a ef 3d 6e 4f 85 bf 63 ab c9 bd f0 6d b5 3d
       0.11684226 -1.0414865 -0.098471425 0.088588595
000090 6b 72 a3 bd b0 98 bb 3d 51 b0 34 be e8 f4 71 3e
       -0.07980808 0.09159982 -0.17645384 0.2362858
0000a0 2f 6e 78 bd 64 ce e2 3e d9 db a7 3d 24 63 17 3e
       -0.060651954 0.4429809 0.081962295 0.14783913
0000b0 8b 7d 44 bd b0 79 a5 bf e3 e9 09 3e 96 40 2e 3e
       -0.04797129 -1.2927761 0.13468127 0.17016825
0000c0 98 f9 c9 3e a3 85 fe bc 05 74 41 bd e4 de a3 3c
       0.39448237 -0.031069582 -0.047229785 0.020003743
0000d0 0e 53 b5 3d 49 72 92 be c6 27 ac 3e da 52 0c bf
       0.08853732 -0.28602818 0.33624095 -0.5481392
0000e0 21 d8 da 3e 4c d5 6d be 03 e0 14 bf 8e f2 6f bd
       0.42743018 -0.23225898 -0.58154315 -0.058580928
0000f0 3e 1f 6f 3e b3 14 f4 3d 3e f2 a3 3e f9 09 71 3c
       0.23351762 0.119180106 0.32020754 0.01471185
000100 54 25 bc 3d ba 1b 37 3f 94 95 ce bd 27 e8 15 bd
       0.09186807 0.7152668 -0.100871235 -0.03659835
000110 16 45 99 bf 03 d2 ff 3d 0f 14 b3 3a c0 6c df be
       -1.1974208 0.124912284 0.0013662594 -0.43637657
000120 26 e2 80 bc 52 89 1f be ed d5 0d be 0f 28 43 3e
       -0.015732836 -0.15579727 -0.13851137 0.1905825
000130 4b 1b 35 3e 39 9e c7 3d e2 b6 34 3d d8 0d b6 bd
       0.17686193 0.097469755 0.044119723 -0.08889359
000140 88 1b 3d 3e e4 6c 92 3e a8 6e de 3d 62 82 19 3e
       0.18467534 0.28598702 0.1086095 0.14991143
000150 7d cb 07 3f 8a 15 09 3e ad ff 44 3e 2b 0c 48 3b
       0.53044873 0.13387123 0.19238158 0.003052483
000160 3f f8 55 3e d4 d5 28 be 68 5e ee 3d 51 f1 25 3e
       0.2089548 -0.16487819 0.116391 0.16205336
000170 6b 8c 28 be 56 8f ee 3e 1d a5 0d 3f 87 9d 80 bf
       -0.16459815 0.46593732 0.5533007 -1.0048074
000180 a1 26 8c 3f 25 30 de 3c c4 25 4b be e5 d9 24 bf
       1.0949289 0.027122566 -0.19838625 -0.6439498
000190 90 82 4d 3e a1 31 4a 3e 62 7d 32 be 07 87 e9 bd
       0.20069337 0.19745494 -0.17430642 -0.114027075
0001a0 dd d6 68 3f 3f 9a 4a bd 9c 6d 13 3f a0 d9 42 3d
       0.90952855 -0.049463507 0.57589126 0.047570825
0001b0 c4 ce 3e be 90 99 47 be db 76 03 3f 2f bb 89 be
       -0.18633562 -0.19492173 0.51353234 -0.26900622
0001c0 d8 63 01 3f 72 0c 9b be 19 83 74 3f 7e c7 8e be
       0.50542974 -0.30282933 0.9551254 -0.27886575
0001d0 74 bf 03 bd 01 0f 87 be 2f fc 72 bc 5f 73 94 bd
       -0.032165006 -0.26378635 -0.014830633 -0.07248568
0001e0 83 20 bf bd fc e2 80 be af 38 f4 3e 7a 6f f5 bd
       -0.09332373 -0.25173175 0.47699496 -0.11984153
0001f0 29 c0 4f 3e 56 ea 61 3e 6d b2 2d be 9d eb a2 3e
       0.20288147 0.22062048 -0.16962595 0.31820384
000200 ad a1 1c bc ee a9 bf bd f3 be 8b 3c 1d ea 86 bc
       -0.009560031 -0.093585834 0.017058825 -0.016469056
000210 b6 f1 61 3d e1 06 32 3d e6 88 1e 3e 48 45 c0 bd
       0.055162154 0.04346359 0.1548191 -0.09388214
000220 02 ab 10 bd 57 a1 89 bd e3 b0 cc 3b d4 6c a4 3d
       -0.035319336 -0.06720226 0.0062466725 0.0802857
000230 20 64 09 bd d4 ee b9 bc da 63 65 3d 4a a8 76 3d
       -0.033542752 -0.02269689 0.05600343 0.060219087
000240 1e 68 c7 3c 37 1e 21 3c 7b ea d3 bc af 5d 6d 3d
       0.02434164 0.009833864 -0.025868645 0.05795067
000250 eb f0 be 3d d3 70 1d 3d cc 5e d8 3d 48 98 5e 3c
       0.09323295 0.038437676 0.10564956 0.013586111
000260 53 21 c7 bc a4 6d 81 3d 6d 3b ff bb 96 8c 7f bd
       -0.024307882 0.063197404 -0.0077890665 -0.062389933
000270 ff c3 8f 3c 7a 47 ea bd df b2 83 3d c3 4a fb ba
       0.017549513 -0.11439414 0.06430601 -0.0019172061
000280 c8 73 23 3d b0 98 f3 bc d6 7e f0 bc bf 3f cf 3c
       0.03990534 -0.029735893 -0.029357355 0.025298951
000290 9c 1f f4 bc 37 28 9a 3d e1 f9 f1 3b 2d c7 4e 3c
       -0.029800229 0.075272016 0.007384524 0.012620729
0002a0 bd 9e f7 bd 12 c2 2b 3d 85 f9 d8 bd cc 30 39 bd
       -0.12090824 0.041933127 -0.10594467 -0.045212552
0002b0 a6 5e 05 bd 7a 72 93 bd 4c f8 89 bc 6a 1d ac 3c
       -0.032560967 -0.07199569 -0.01684203 0.02101012
0002c0 99 9f 02 be 28 b9 7f 3d 98 f7 91 3d 5d 61 98 bd
       -0.12756194 0.062432438 0.07127303 -0.074404456
0002d0 59 13 46 bd 64 b1 86 3d 49 c8 a4 3d 30 5a 07 3e
       -0.048358295 0.06576803 0.08046014 0.13217998
0002e0 22 82 8a bd 0d bf 38 bd 77 05 91 bd 7d d4 8a 3a
       -0.06763102 -0.045104075 -0.070811205 0.0010591891
0002f0 38 a6 19 3e 44 ab 05 bd d3 90 20 3d ec 3b a4 bd
       0.15004814 -0.032634035 0.039200615 -0.08019242
000300 4a be 80 bd 1b 54 30 3e 65 51 ac 3d df c8 c7 3d
       -0.06286295 0.17219584 0.08413962 0.0975511
000310 3c 21 b1 3b 22 c9 f8 bd 08 63 40 3d 91 51 3d bc
       0.005405573 -0.12147738 0.046969444 -0.0115550915
000320 1d 1e fb bc 51 1c 96 bd 5f 3d 07 3e aa cf 3d bd
       -0.030654008 -0.0732962 0.13207005 -0.046340622
000330 f4 11 60 3d 3b 78 b9 bd 5e 2f 21 bc 28 a3 84 3d
       0.05470462 -0.09056135 -0.009837953 0.06476432
000340 2f 13 b7 bd a6 a7 a9 bc 13 35 d6 3d fc fe 3f bc
       -0.08939206 -0.020709824 0.10459342 -0.011718508
000350 87 46 00 bd c8 d5 b5 3b f8 60 d4 3d 2b ae 9a 3d
       -0.03131726 0.0055491664 0.10370058 0.07552751
000360 72 74 37 3c 7e 42 d8 bd fc 2f 98 3d 50 62 69 3d
       0.011197196 -0.105595574 0.07431027 0.056978524
000370 80 5a ff 3d eb 40 4f be a3 96 ae 3d 1a 8b 92 38
       0.124684334 -0.20239608 0.085248254 6.987732e-05
000380 2d 0e b1 3d 45 47 6d bd d0 db a5 bc c2 4c 89 bd
       0.08645282 -0.057929296 -0.020246416 -0.067040935
000390 63 2a 94 bd 02 ae c4 bc 68 de 96 bb 3c c9 30 bc
       -0.07234647 -0.024008755 -0.0046041496 -0.0107901655
0003a0 2a b5 94 3d 63 f9 2a 3d 01 9f 28 bd bc af 3c 3d
       0.07261117 0.04174174 -0.041167263 0.04606603
0003b0 d7 8e 88 3d 61 68 cf 3c 4f fd f5 bd c7 39 6e 3d
       0.066678695 0.025318326 -0.120112054 0.05816057
0003c0 a4 61 0e bc 32 28 2e 3d a5 ab 3c bd cc 7a 39 3d
       -0.0086902715 0.042518802 -0.04606213 0.045283124
0003d0 90 e3 fc bd 18 f8 91 3c d3 90 6c 3d 75 81 18 3d
       -0.123480916 0.017818496 0.057755303 0.037232835
0003e0 95 b0 48 bd c3 90 cb 3d e6 6a ad bd 51 34 7f 3d
       -0.048996527 0.099397205 -0.08467655 0.062305752
0003f0 96 ec 2c bd db da ab bd 69 1f a2 bd 2b 0a 7c bd
       -0.042217813 -0.08391353 -0.07916147 -0.061533134

bias f4 [3]
000000 77 49 47 bd 69 91 b1 bd 10 f7 96 bd
       -0.048654046 -0.08670313 -0.07371342

weight f4 [2, 128]
000000 20 3c 80 3e 8e 5f 52 be 72 75 2a bd c9 71 4d be
       0.25045872 -0.20544264 -0.04161591 -0.20062937
000010 45 29 90 3c e0 76 06 3d db 1c 64 3d 9f ba f3 bd
       0.017597804 0.03282821 0.05569158 -0.119008295
000020 63 f8 2f 3e 96 47 ad 3d 08 22 76 be 90 73 b6 bd
       0.17184596 0.084609196 -0.2403642 -0.089087605
000030 55 b8 4c be 97 42 da bd 5c 0e f9 3d 72 70 42 3d
       -0.19992192 -0.10657232 0.12160942 0.047470517
000040 42 50 e6 3c c5 b4 b6 3e bd b8 57 be e2 52 00 3e
       0.028114442 0.3568479 -0.21066566 0.12531617
000050 b6 ad 5f 3c 46 e8 3c 3e dc 29 09 bd 7d bc 91 3d
       0.013652256 0.1844798 -0.033487186 0.071160294
000060 10 d2 cb bb 88 c5 63 be 01 43 c2 bd 1f 92 ab bc
       -0.0062201098 -0.22243321 -0.09485436 -0.0209437
000070 d1 89 1f bd 2a c8 2a bd 5f d4 29 bc 75 cc c8 3d
       -0.03894979 -0.041694798 -0.010365575 0.09804622
000080 0c f1 9c be 8b 60 46 3d 5f 85 94 be fb 1c 65 be
       -0.30652654 0.048431914 -0.29008004 -0.22374336
000090 ec 8b 63 be 6e b8 5a 3e 58 7a 11 be 4f 50 cd bd
       -0.22221345 0.21359417 -0.14206827 -0.10025083
0000a0 37 43 4a be e9 0e d0 3b 3f 94 43 3d fe 84 82 be
       -0.19752203 0.0063494337 0.0477488 -0.2549209
0000b0 6e 91 a6 be f2 50 27 bc ec 71 5f be 55 95 84 be
       -0.3253283 -0.01021217 -0.21820801 -0.2589518
0000c0 48 71 e8 bd 71 0e 97 3e cf c4 38 3e 60 c8 cb 3d
       -0.11349732 0.29503205 0.18043827 0.09950328
0000d0 59 c3 5a 3e 66 50 17 bd 53 05 e2 3d 65 0b 03 3d
       0.21363582 -0.03694191 0.11036172 0.03199329
0000e0 1a ff ac 3c 5a e2 59 3d 0e 47 ca bd 0c 08 0f be
       0.021117736 0.05319438 -0.09876834 -0.13967913
0000f0 b1 2b a0 3d 69 f9 75 be 26 72 54 3b 1a 89 77 be
       0.078208335 -0.24020924 0.003241667 -0.24173394
000100 5d c2 20 bf 23 70 7b 3d 03 88 77 be ac 97 4b be
       -0.62796575 0.06138624 -0.24172978 -0.19882077
000110 fc 25 c7 3c c2 69 d7 bd 0f a3 45 3e d2 79 09 bd
       0.024310105 -0.105182186 0.19300483 -0.033563443
000120 32 c5 6a 3d fa 4f 09 be 87 64 4c 3e 20 e1 44 be
       0.057316966 -0.13409415 0.19960223 -0.19226503
000130 df 1c 52 be 91 1c 1f 3e 3f 3a d5 3e f1 fd 1e 3e
       -0.20518826 0.15538241 0.41646 0.15526558
000140 ab ec 67 be 2c 2b a9 bd 4f 2b 89 bd 15 03 4a 3e
       -0.22648875 -0.082601875 -0.066977136 0.19727738
000150 6b cb aa bd 30 40 60 3e 2a 43 29 3e ad 9b 81 be
       -0.0833958 0.21899486 0.16529527 -0.25314084
000160 87 80 ce bd c0 55 19 be 1f 0a 10 be c8 49 17 3e
       -0.100831084 -0.14974117 -0.14066361 0.14774239
000170 5f 67 69 3e dc a8 17 be f4 cd 03 bd 6f 81 83 bd
       0.22793339 -0.14810508 -0.032178834 -0.06421172
000180 87 3c 54 3d 69 e2 01 3e b5 0e 55 3e c8 36 40 bb
       0.051815536 0.12684025 0.20806392 -0.0029329527
000190 5d ec 81 be a7 af 1c be dd 59 0d be c2 83 a3 3e
       -0.25375643 -0.15301381 -0.13803811 0.3193646
0001a0 53 36 f5 3c ee c6 1e 3f b0 00 df bc 29 8c 0f 3e
       0.02993313 0.6202229 -0.027222008 0.1401831
0001b0 9b b1 cc bd 9d 01 88 3e e5 f2 e2 bc 36 a5 0b be
       -0.09994813 0.2656373 -0.027703712 -0.13637242
0001c0 45 7d ca bc ba 74 e8 bc f2 7d f7 3b 00 0e f8 3d
       -0.024717936 -0.028375972 0.0075528556 0.12112045
0001d0 06 ad 4f 3b 9a a1 45 bc a1 05 b9 be 8a 3c 8d 3e
       0.0031688823 -0.012062455 -0.36137107 0.2758525
0001e0 64 ed 42 be 4b 8a 96 bd 5f fd 0d bd 1b e5 f4 bd
       -0.1903587 -0.07350596 -0.03466546 -0.11957761
0001f0 46 fe 67 be 50 9a 54 be b6 c3 54 be 4e f3 62 3d
       -0.22655591 -0.2076199 -0.20777783 0.055407815
000200 14 1f 1c be 89 90 72 3e 18 75 97 bc c4 ef 60 3e
       -0.1524623 0.23687948 -0.018488452 0.21966463
000210 e1 32 aa bd 78 a5 e4 3a 42 07 02 be 99 45 be 3d
       -0.08310486 0.0017444333 -0.12698081 0.092906184
000220 4f 2e dc bd 9a b3 05 be 5f ee 50 3e be 69 38 3e
       -0.1075102 -0.13056794 0.20403431 0.18009087
000230 78 4f 82 3e 5c 2c 71 3e 7b 96 29 be 0d f9 2a 3d
       0.25451255 0.23552078 -0.1656131 0.04174142
000240 71 e0 dd bd c7 73 89 be 3c 08 99 3e c9 55 1a ba
       -0.108338244 -0.26846144 0.29889095 -0.0005887417
000250 2a 22 3f bd a9 80 21 be 1b de b6 bd d3 5a 88 bb
       -0.04666344 -0.15771736 -0.08929082 -0.0041612177
000260 c6 bf de bd 1a 62 84 3e 16 66 18 3e 6d 41 ce bd
       -0.10876422 0.25856096 0.14882693 -0.10071073
000270 d4 b8 d9 3b 67 ca cb 3d cf 97 fa bd 1b d3 d3 bd
       0.0066443477 0.099507146 -0.122359864 -0.103429995
000280 fc c5 aa 3e 77 6c 41 bc 17 4b b3 3e 87 69 a6 3e
       0.33354175 -0.011805645 0.35018227 0.32502386
000290 43 51 47 3e 60 5a 7b be fb 5d bc 3d 43 be 3f 3e
       0.19464593 -0.24546194 0.09197613 0.18724923
0002a0 0f 67 7d 3e 18 c3 74 bd 01 3b 3b bd 39 8d 8c 3e
       0.24746345 -0.05975637 -0.045710567 0.27451494
0002b0 38 12 c9 3e b9 ac 0a bc 34 28 5a 3e db 37 2f 3e
       0.39271712 -0.008464032 0.21304399 0.17111151
0002c0 a4 05 5b 3d ae b2 b9 be 8f c5 5c be ee c1 67 be
       0.053472176 -0.36269134 -0.21559738 -0.22632572
0002d0 a3 7a 1b be 11 dc b8 3d aa 05 96 3c dd b4 e6 bd
       -0.15183501 0.09026349 0.018313248 -0.11264966
0002e0 41 ce 58 bd 0b 5f 02 be 75 2d 4c bd b9 b5 13 3e
       -0.052931074 -0.12731569 -0.04984804 0.1442479
0002f0 14 b9 ff bd ab b3 8a 3e c0 9e 0e be 0d 64 0a 3e
       -0.12486473 0.270902 -0.13927746 0.13514729
000300 d5 9e 23 3f 67 82 11 3d 4e 09 4e 3e 8e 9d eb 3d
       0.63914233 0.035524752 0.20120737 0.115046605
000310 ad b8 00 bd 92 c2 f1 3d 17 05 56 be 9c cc 0e bd
       -0.03142612 0.118046895 -0.20900379 -0.0348631
000320 b8 19 11 be 4b f1 4e 3e 39 22 43 be b4 aa 4b 3e
       -0.14169967 0.20209233 -0.19056024 0.19889337
000330 d0 74 49 3e 89 f7 ad bd a1 cb d9 be 86 76 31 be
       0.19673467 -0.08494479 -0.4253817 -0.1733037
000340 7d 50 f8 3d 91 08 9f 3d 46 83 a8 3d 26 20 15 be
       0.12124727 0.07765306 0.082281634 -0.14563045
000350 cd 0a ea 3c a9 02 39 be 3b 64 01 be 39 ce 6c 3e
       0.028569603 -0.18067421 -0.12635891 0.23125543
000360 0b 13 40 3e fa 14 b2 3d 79 a3 56 3d 49 59 8d bd
       0.18757264 0.08695407 0.052401993 -0.069017954
000370 9f 35 92 be 67 a0 83 3d 8f b6 e8 bb 02 87 b5 bd
       -0.28556535 0.06427079 -0.007101841 -0.08863641
000380 95 e2 62 3d 7f 47 7f be 0f 94 5d be 7f 40 b6 bd
       0.055391867 -0.24929617 -0.21638511 -0.088990204
000390 93 47 4c 3e 8a 4f 5c 3e 22 0f de 3d 6d 4b 99 be
       0.19949178 0.21514717 0.1084273 -0.29940358
0003a0 af e3 b2 3c 14 ef 1b bf cc d8 a6 3d a8 95 37 be
       0.021837084 -0.6091168 0.081468195 -0.17928183
0003b0 4f 22 98 3c 2a 3a 86 be 1d ae 1d 3e 89 5b 42 3d
       0.018571047 -0.2621625 0.1539845 0.047450576
0003c0 4e dd 8c 3d 9c a4 c0 bd bb 58 69 3d a7 c0 90 bd
       0.06878148 -0.09406397 0.056969386 -0.070679955
0003d0 98 d0 c0 3d 38 cc 07 be 84 1a b4 3e f5 57 a4 be
       0.09414786 -0.13261497 0.3517648 -0.32098356
0003e0 cf 52 52 3e 60 f5 5f 3d 5e 31 40 3d a2 01 da 3d
       0.20539401 0.054677367 0.04692208 0.10644843
0003f0 ad 1f 80 3e cd c6 af 3d e6 d3 45 3e a3 f1 13 3c
       0.25024167 0.0858284 0.19319114 0.009029779

bias f4 [2]
000000 55 59 c3 bc 2f 8a 0e bc
       -0.023846308 -0.008699938
